…
n=False, save_period=-1, save_txt=False, scale=0.9, seed=0, shear=2.0, show=False, show_boxes=True, show_conf=True, show_labels=True, simplify=True, single_cls=False, source=None, split=val, stream_buffer=False, task=detect, time=None, tracker=botsort.yaml, translate=0.2, val=True, verbose=True, vid_stride=1, visualize=False, warmup_bias_lr=0.1, warmup_epochs=3.0, warmup_momentum=0.8, weight_decay=0.0005, workers=8, workspace=None

                   from  n    params  module                                       arguments                     
  0                  -1  1       928  ultralytics.nn.modules.conv.Conv             [3, 32, 3, 2]                 
  1                  -1  1     10144  ultralytics.nn.modules.conv.GhostConv        [32, 64, 3, 2]                
  2                  -1  2     10864  ultralytics.nn.modules.block.C3Ghost         [64, 64, 2]                   
  3                  -1  1     38720  ultralytics.nn.modules.conv.GhostConv        [64, 128, 3, 2]               
  4                  -1  3     43600  ultralytics.nn.modules.block.C3Ghost         [128, 128, 3]                 
  5                  -1  1     94480  ultralytics.nn.modules.conv.GhostConv        [128, 160, 3, 2]              
  6                  -1  3     66660  ultralytics.nn.modules.block.C3Ghost         [160, 160, 3]                 
  7                  -1  1    117520  ultralytics.nn.modules.conv.GhostConv        [160, 160, 3, 2]              
  8                  -1  2     61720  ultralytics.nn.modules.block.C3Ghost         [160, 160, 2]                 
  9                  -1  1     64480  ultralytics.nn.modules.block.SPPF            [160, 160, 5]                 
 10                  -1  1         0  torch.nn.modules.upsampling.Upsample         [None, 2, 'nearest']          
 11             [-1, 6]  1         0  ultralytics.nn.modules.conv.Concat           [1]                           
 12                  -1  1      3040  ultralytics.nn.modules.conv.DWConv           [320, 80, 3]                  
 13                  -1  1      6560  ultralytics.nn.modules.conv.Conv             [80, 80, 1]                   
 14                  -1  1         0  torch.nn.modules.upsampling.Upsample         [None, 2, 'nearest']          
 15             [-1, 4]  1         0  ultralytics.nn.modules.conv.Concat           [1]                           
 16                  -1  1      7616  ultralytics.nn.modules.conv.DWConv           [208, 64, 3]                  
 17                  -1  1      4224  ultralytics.nn.modules.conv.Conv             [64, 64, 1]                   
 18                  -1  1       704  ultralytics.nn.modules.conv.DWConv           [64, 64, 3, 2]                
 19                  -1  1      5280  ultralytics.nn.modules.conv.Conv             [64, 80, 1]                   
 20            [-1, 13]  1         0  ultralytics.nn.modules.conv.Concat           [1]                           
 21                  -1  1      1600  ultralytics.nn.modules.conv.DWConv           [160, 80, 3]                  
 22                  -1  1      6560  ultralytics.nn.modules.conv.Conv             [80, 80, 1]                   
 23            [17, 22]  1    322964  ultralytics.nn.modules.head.Detect           [2, [64, 80]]                 
YOLO11n-ghost-hybrid-p3p4-medium summary: 210 layers, 867,664 parameters, 867,648 gradients, 5.8 GFLOPs

Freezing layer 'model.23.dfl.conv.weight'
[34m[1mAMP: [0mrunning Automatic Mixed Precision (AMP) checks...
[34m[1mAMP: [0mchecks passed ✅
[34m[1mtrain: [0mFast image access ✅ (ping: 0.0±0.0 ms, read: 684.5±225.7 MB/s, size: 3149.9 KB)
[K[34m[1mtrain: 
…
